last/saved_models/Champion_Hybrid_QNN_best.pt (torch, 4180 bytes, 5 tensors)

fc_in.weight f4 [6, 30]
000000 13 d6 a8 3b 20 bb 88 bd c6 1b 32 3d 77 ef a6 be
       0.0051524728 -0.06676316 0.043483518 -0.32604572
000010 1f 91 f9 3e 14 f7 3d 3f 15 ec c2 bc f2 4d ca 3c
       0.4874353 0.74205136 -0.023794213 0.02469537
000020 03 42 29 be 44 1a 6e be a0 b6 fc 3e 7f 35 bf 3e
       -0.16529088 -0.23252207 0.49358082 0.37345502
000030 ae cc 78 bd ee 50 e2 3d c5 6f 57 3d e3 ad 65 be
       -0.060742073 0.11050592 0.052596826 -0.22429614
000040 44 83 47 3f bd ab cb 3e 88 59 bc 3c e3 1b 14 be
       0.7793467 0.39779463 0.02299191 -0.14463763
000050 1f 9a 45 3c c6 72 60 3e 3b 58 81 3f 93 e7 2f 3f
       0.012060671 0.21918783 1.0105051 0.6871273
000060 8a 98 45 3c 40 44 dd bc 92 11 af bd 39 01 a2 3e
       0.012060294 -0.027010083 -0.08548273 0.31641558
000070 f3 b2 9e 3f 99 d9 22 3f b5 73 9e 3d d8 8e 9a be
       1.2398361 0.6361328 0.07736913 -0.30187106
000080 75 f8 9c be b2 20 1a bf b0 80 3e bf 3f d5 31 bd
       -0.30658308 -0.6020614 -0.7441511 -0.043416258
000090 ff 9a b1 bd 44 cd 34 bd 22 a5 20 3d 9a 99 08 bf
       -0.08672141 -0.04414107 0.039219983 -0.5335938
0000a0 f2 d9 c3 3e 6c 12 45 be 50 3b b5 3c c3 4d 0e 3e
       0.38252217 -0.19245309 0.022123009 0.13896851
0000b0 3e b6 cc 3b 82 84 45 bf 64 ec c0 3f f8 7b af be
       0.006247311 -0.77155316 1.5072141 -0.34274268
0000c0 d4 73 2d bc 8e 67 3c 3d de e5 92 3d 92 f2 3f be
       -0.010586698 0.045997195 0.0717275 -0.18744877
0000d0 18 63 ac 3f f3 c8 04 bf e8 13 58 be bd 69 52 3d
       1.3467741 -0.51869124 -0.21101344 0.05137037
0000e0 d2 da 55 be 2f 17 a8 3e a9 78 67 be 76 22 be be
       -0.20884255 0.32830188 -0.22604622 -0.37135667
0000f0 76 92 72 bc bf 90 b9 bd 4b 40 79 bc 0e 3f 34 3f
       -0.014805427 -0.09060811 -0.015213083 0.70408714
000100 dd 72 04 3e 7b 07 17 3f 4c f3 35 3a b0 52 ea 3d
       0.12934442 0.5899579 0.0006940856 0.11441553
000110 43 1a 01 bd f9 22 91 3e 92 9d 2b bf 25 cf ea 3d
       -0.031519186 0.28346995 -0.6703731 0.11465291
000120 f8 7c 3c ba 1e 55 fc bc a5 37 6c 3d 08 e7 12 bf
       -0.00071902527 -0.030802306 0.057670254 -0.57383776
000130 48 bc d4 bc 98 6c 5e 3f 62 05 07 bc b9 9d 44 3d
       -0.025968686 0.8688445 -0.008241029 0.04800198
000140 5c 0b 04 3d 95 ac 8b 3e 55 8f 41 be 60 f6 cc 3e
       0.032237396 0.27280107 -0.18902333 0.4003172
000150 52 48 a5 3d eb 2a 22 3e d6 af 09 be 5d 94 03 3e
       0.08070435 0.15836684 -0.13445982 0.12849565
000160 32 37 e7 bd 25 05 c8 be e2 05 8f 3d ca 0c 0f bd
       -0.112898245 -0.39066425 0.06983544 -0.034924306
000170 25 5b 2d 3e f0 ee 0e bf d5 8c 02 3f 1a cf b4 3c
       0.169293 -0.5583334 0.5099614 0.02207141
000180 a8 9e d3 bd bf 2b 51 3e 79 f9 c5 be 8b 41 f1 be
       -0.10332996 0.20426844 -0.38666895 -0.47120318
000190 b2 de c5 3f 30 cf 2c 3d 69 bb 76 be 4d 7e c4 bd
       1.5458586 0.042189777 -0.24094929 -0.095944025
0001a0 8a 11 1a bd 7a a1 14 3e 85 f8 df 3f 46 44 c4 be
       -0.037614383 0.14514723 1.7497717 -0.38333338
0001b0 dd ae 80 be 79 2e 9b bd 15 f3 40 be 81 72 24 be
       -0.2513341 -0.07577223 -0.18842728 -0.16059305
0001c0 af 55 7a 3f e4 46 50 3d aa da a3 3d fd 3d 5a bd
       0.9778699 0.050848857 0.08000691 -0.053281773
0001d0 d0 a5 d6 be 83 b3 e3 be b8 cd 52 3f 9a 2c 52 bd
       -0.4192338 -0.44472894 0.8234515 -0.051312067
0001e0 f6 d2 91 3c c5 c2 3b 3e ec e2 1a bf 3f 6d dd 3d
       0.01780079 0.18336017 -0.60502505 0.10811853
0001f0 64 80 85 3e 04 2e ff be 23 5f 80 be 1f a9 4f be
       0.26074517 -0.49839795 -0.25072584 -0.20279358
000200 1f f8 0a bf b8 25 9f bd c4 89 40 3e 2b 76 07 bf
       -0.5428485 -0.07770866 0.18802553 -0.52914685
000210 b2 74 b3 be cc d2 e7 bd 4a 35 26 bd 2e 73 2e be
       -0.3504997 -0.11319503 -0.040578164 -0.17036125
000220 a3 67 a4 3d 4c 23 31 bf c0 be 7f be 7d b3 87 3d
       0.0802758 -0.69194484 -0.24975109 0.066260315
000230 69 a2 af be c7 05 73 be 07 3e 57 bd 3c 69 6e bf
       -0.34303597 -0.23732673 -0.05254939 -0.93129325
000240 fd 93 3c be 87 f3 08 3e 61 ce e8 be 3e e5 01 3e
       -0.18415828 0.13374148 -0.45469955 0.12685105
000250 3a 09 a5 3d 38 12 6f bf 64 9d 32 bc 3a 38 c1 bc
       0.080584005 -0.93387175 -0.010901783 -0.023586381
000260 7d 42 ae 3c d5 c4 24 3d 0b dd f6 be 07 8a 2e 3f
       0.021271938 0.040226776 -0.48215517 0.68179363
000270 76 4c 25 bc f7 76 94 3d 94 0a 8e bb a7 0f 95 3e
       -0.0100890305 0.07249253 -0.004334757 0.29113504
000280 1b e0 9d 3e de a7 f7 3d d3 5e cc 3c 77 d0 ad bd
       0.3083504 0.12092565 0.02494756 -0.08487027
000290 49 a0 53 bd e2 a6 3a be 39 74 19 3e 84 21 aa 3d
       -0.05166653 -0.18227723 0.14985742 0.08307174
0002a0 f8 a1 80 bc 16 63 4c 3d ba 25 38 3c 27 11 12 3f
       -0.015702233 0.049899183 0.011239463 0.5705742
0002b0 36 7c 6c 3e 1d d9 5e 3e bc ac cb 3d 97 73 08 be
       0.23094258 0.2176251 0.09945056 -0.13325344
0002c0 97 16 8f bd 92 48 7c 3e e5 f7 3e 3e e1 0f 7d 3f
       -0.069867305 0.24637058 0.18649252 0.98852354

fc_in.bias f4 [6]
000000 7e c5 be bf 96 68 29 bf 03 a6 e2 be 65 bd 6f be
       -1.490402 -0.6617521 -0.44267282 -0.23412092
000010 22 cb 27 bf bb 0b db be
       -0.6554433 -0.42782387

qlayer.weights f4 [5, 6, 3]
000000 e4 cf 8c 40 05 6d de 3f 5b 01 46 40 3f 4a 69 3f
       4.4003773 1.737702 3.0938327 0.91128916
000010 98 45 97 40 81 af 49 40 e0 23 da be 82 e6 97 bc
       4.7272453 3.151337 -0.42605495 -0.018542532
000020 0f a6 24 3f ba 7b b6 40 f0 88 49 40 07 d7 81 40
       0.64315885 5.7026033 3.148983 4.0574985
000030 ea f1 bb 3f b9 2a 48 40 e3 2a 57 3f 85 e6 b3 3e
       1.4683201 3.1276076 0.84049815 0.3513681
000040 cb 44 c9 40 33 a4 9d be e1 ee c2 40 7a 1a a1 40
       6.2896476 -0.30789337 6.09166 5.034482
000050 f2 ea a6 40 2d a2 b5 3f 52 ad c5 40 fe 91 9a 40
       5.21618 1.4190117 6.1774073 4.8303213
000060 33 39 60 40 c0 3e 98 40 f2 a3 d0 3f d3 6b 98 40
       3.5034912 4.75766 1.6300032 4.763162
000070 70 d6 96 40 ca be c8 3f 06 6c 20 3f c5 28 c9 40
       4.7136765 1.5683224 0.6266483 6.2862267
000080 a7 77 6d 40 e1 b8 9a 40 5e 52 55 40 87 2a ce 40
       3.710428 4.835068 3.3331523 6.4426913
000090 cb fc b0 40 36 ef 9f 40 bc c0 82 3e a6 28 f8 3e
       5.5308585 4.9979506 0.2553767 0.48468512
0000a0 61 b9 12 3e 33 da 2a 40 85 86 97 40 30 d0 96 40
       0.14328529 2.6695678 4.735171 4.7129135
0000b0 61 9e 48 40 c2 3d ca 3f f7 ce 96 40 02 84 c1 40
       3.1346667 1.5800097 4.7127643 6.047364
0000c0 58 b5 e6 3f ec f9 48 40 95 e4 26 40 82 09 58 3a
       1.8024092 3.140254 2.6077015 0.0008241163
0000d0 ba 19 97 40 51 eb d5 40 67 d0 81 3e 15 c1 96 40
       4.7218904 6.684975 0.2535431 4.7110696
0000e0 bb d6 c8 3f 76 f1 5c 40 15 6a 48 40 17 8c 8a 40
       1.569053 3.4522376 3.1314747 4.329601
0000f0 00 34 bc 40 c9 a1 97 40 72 05 49 40 31 67 66 3d
       5.8813477 4.738499 3.1409574 0.056250755
000100 67 30 d0 3f 6a b1 15 40 d0 75 85 3f e8 ca 9b 3d
       1.6264771 2.3389535 1.0426579 0.07607061
000110 24 8e 06 40 61 72 07 40 9e e6 c8 40 4a 28 b6 40
       2.1024256 2.1163561 6.2781515 5.692418
000120 13 4f 7d 40 08 2a ca 40 05 48 bb 40 52 dc ff 3f
       3.9579513 6.317631 5.8525414 1.9989111
000130 7a c8 c9 40 57 d0 5d 3e fd 9a c9 3f 35 bc 96 40
       6.305722 0.21661507 1.5750424 4.7104745
000140 37 5d fb 3f 16 c6 88 bd ca d3 ca 3f a3 45 dc 3f
       1.9637822 -0.06678407 1.5845883 1.7208751
000150 55 61 e6 3f 42 c4 48 40 8e 72 ae 40 b9 a9 96 40
       1.7998453 3.1369786 5.4514837 4.708218
000160 ea 0a 49 40 27 0f a4 40
       3.1412911 5.1268497

fc_out.weight f4 [6, 6]
000000 14 a0 a6 c0 6b 71 66 40 cd c2 ab 40 55 ec b7 c0
       -5.207041 3.6006725 5.3675294 -5.747599
000010 a3 ce 83 be 6b fd bf 40 46 fa 82 40 e0 7b 96 3f
       -0.2574359 5.999685 4.093051 1.1756554
000020 32 02 bb 40 62 fc 2b 40 ca ff c7 3e 10 70 d4 3f
       5.844018 2.6872792 0.3906234 1.6596699
000030 f8 db 8d 3f f7 6b 81 be 19 b7 91 bf 00 00 c2 3e
       1.1082754 -0.25277683 -1.1384002 0.37890625
000040 62 ac 36 40 c4 70 2b 40 e1 a6 07 be 61 23 e1 3d
       2.8542714 2.6787577 -0.13247253 0.10993076
000050 71 c3 09 3e 72 b5 c4 bc 36 f9 e4 3e d4 78 92 bd
       0.13453461 -0.024012301 0.44721383 -0.071519524
000060 06 73 aa 3d 83 fa 4f be e8 16 2d b9 76 11 05 3e
       0.0832272 -0.20310406 -0.00016507099 0.12994942
000070 8e 3f a7 3d ed a7 f6 3d 4e d6 5e be b1 8b 2e be
       0.08166419 0.12043748 -0.21761438 -0.17045476
000080 d3 91 09 3e 76 14 76 3e b4 bf 45 bd f8 65 21 3d
       0.13434534 0.24031243 -0.048278525 0.039403886

fc_out.bias f4 [6]
000000 41 9a d3 3f 0a 4d 35 bf 48 2b 1f be b1 73 be bd
       1.653145 -0.7082068 -0.15543854 -0.0929941
000010 5c 35 21 3d 22 97 0c 3e
       0.039357528 0.13729528
