last/saved_models/Classical_LSTM_best.pt (torch, 24421 bytes, 6 tensors)

lstm.weight_ih_l0 f4 [128, 6]
0	0x3cb7b9c4	0.022427447
1	0x3e7670aa	0.24066415
2	0xbdc0e2de	-0.094182715
3	0x3e341ec0	0.17589855
4	0xbf4a7565	-0.7908538
5	0xbf0b34b4	-0.54377294
6	0x3e858344	0.2607671
7	0x3dc51dce	0.096248254
8	0x3e13c2c2	0.14429763
9	0xbe22e65e	-0.1590819
10	0x3f300f9f	0.68773836
11	0xbdd3171e	-0.10307144
12	0x3da25bf6	0.079276964
13	0x3e1a627b	0.1507663
14	0x3d8e1126	0.069368646
15	0xbeb4bc91	-0.35300115
16	0xbf0431e2	-0.51638615
17	0x3e07087a	0.13186827
18	0x3ca9a96c	0.02071067
19	0xbdd985d6	-0.1062123
20	0x3ef0c74e	0.47027057
21	0x3f167ac6	0.5878109
22	0xbf0fdbe6	-0.56194913
23	0x3c534dd7	0.012896976
24	0x3e3c91e6	0.18415031
25	0xbae070cc	-0.001712346
26	0x3dbb69f5	0.09151069
27	0xbf208e92	-0.62717545
28	0x3e933abc	0.28755748
29	0x3dbe88b1	0.093034156
30	0x3d5eeac8	0.054423124
31	0x3db7e2ea	0.08978827
32	0x3e68597f	0.2269039
33	0xbe530201	-0.20606233
34	0xbe394fde	-0.18096873
35	0xbe6b4b3e	-0.22977921
36	0x3e245b4c	0.16050452
37	0x3d9731a3	0.07382514
38	0x3ec649f0	0.38728285
39	0x3e1b2b9d	0.15153356
40	0xbef6d0de	-0.48206228
41	0x3e3a312f	0.18182825
42	0x3d11da58	0.03560862
43	0x3e3b7b6d	0.18308802
44	0xbdcce756	-0.10005061
45	0xbde85d87	-0.11345964
46	0xbe2c9706	-0.16854486
47	0x3d138828	0.03601852
48	0x3dc0e784	0.09419158
49	0x3cc879a5	0.024472067
50	0xbe159c76	-0.14610466
51	0xbc2adfc8	-0.01042933
52	0xbef2837c	-0.4736594
53	0x3db9d956	0.09074657
54	0x3db15b92	0.08660044
55	0x3ed6f8d1	0.41986707
56	0xbc582e1a	-0.013194585
57	0xbd651cab	-0.055935543
58	0xbf6ee023	-0.93310755
59	0xbe2039fc	-0.1564712
60	0x3e4596db	0.19295828
61	0x3e56dd31	0.20982815
62	0x3d6765a8	0.05649343
63	0xbd9625ae	-0.073314056
64	0xbd55f4f6	-0.052235566
65	0xbec71311	-0.38881734
66	0xbe41487f	-0.18875311
67	0xbe168715	-0.14699967
68	0x3e05e93e	0.13077256
69	0x3f2ef188	0.683373
70	0xbeabf78d	-0.33587304
71	0xbef0a911	-0.47003987
72	0x3d502fff	0.050827023
73	0xbd3b0d6d	-0.0456671
74	0x3e0a0f42	0.13482383
75	0xbe419012	-0.18902615
76	0xbe8d9e62	-0.276599
77	0x3ca86a57	0.02055852
78	0x3df838f3	0.12120237
79	0x3d72e7b6	0.059303008
80	0x3e0b1b44	0.1358462
81	0xbf2e41ec	-0.6806934
82	0x3a4ca594	0.00078066555
83	0xbe8a5d6d	-0.27024403
84	0x3d756315	0.059908945
85	0xbed7b97b	-0.42133698
86	0x3df74279	0.120732255
87	0x3f295333	0.66142577
88	0xbd058055	-0.03259309
89	0x3e96aa58	0.29426837
90	0x3ca61e85	0.020278225
91	0x3e65e7fd	0.22451778
92	0x3e50483f	0.2034006
93	0xbead7704	-0.33879864
94	0x3d829cf1	0.063775904
95	0xbe5ce331	-0.21571042
96	0xbde0628d	-0.10956297
97	0x3de00f88	0.10940462
98	0xbeb4cecf	-0.35314032
99	0xbf9aef7d	-1.2104336
100	0xbe9f0184	-0.31055844
101	0x3e811979	0.25214747
102	0x3d033d88	0.032041103
103	0xbed1d3bb	-0.4098185
104	0x3f4655bf	0.7747459
105	0x3fa0d79d	1.25658
106	0xbda9d209	-0.08292014
107	0xbece55f9	-0.40299967
108	0x3e2c420e	0.16822073
109	0xbe702e54	-0.23455173
110	0x3e271890	0.16317964
111	0xbe50d1d2	-0.2039254
112	0x3e360106	0.17773828
113	0x3e26eedb	0.16302054
114	0x3d65c0ac	0.05609195
115	0x3e95619a	0.29176027
116	0xbe4c3e4e	-0.19945642
117	0x3eb8122e	0.3595137
118	0xbee1766a	-0.44035655
119	0xbb98c375	-0.004661972
120	0x3c437d10	0.011931673
121	0x3e11d6fe	0.1424217
122	0x3d47e9af	0.048806842
123	0xbdeb6f95	-0.11495892
124	0xbe864a8a	-0.26228744
125	0xbd7b2c43	-0.06132151
126	0xbe73f61d	-0.23824354
127	0x3df13981	0.11778546
128	0x3d635b86	0.055507205
129	0xbd9017c8	-0.07035786
130	0x3d852595	0.06501309
131	0x3af728df	0.0018856785
132	0x3db4735e	0.08811067
133	0xbe05201d	-0.13000531
134	0x3e110541	0.1416216
135	0x3e952afc	0.29134357
136	0xbea6172b	-0.3243955
137	0x3e798cff	0.24370192
138	0x3ead26f3	0.33818778
139	0xbe8f4eef	-0.2798991
140	0x3d6cedf6	0.057844125
141	0xbe53d96c	-0.20688409
142	0xbeaaf57f	-0.33390424
143	0x3e6079c8	0.21921456
144	0x3ed4d7e8	0.41570973
145	0x3b5e8478	0.003395347
146	0xbd33360b	-0.04375271
147	0xbe7bb139	-0.24579324
148	0xbe9d1b00	-0.30684662
149	0x3f1a7ad9	0.603437
150	0x3d1c1657	0.038107242
151	0xbd7a45f2	-0.06110186
152	0x3d9e434d	0.0772768
153	0x3b4a8f52	0.003090818
154	0xbf0fb304	-0.5613253
155	0xbdfec421	-0.12439752
156	0x3e458878	0.1929034
157	0xbdc71aa4	-0.09721878
158	0xbe6221e0	-0.22083235
159	0x3e2ba4e8	0.16762125
160	0x3dc9fd12	0.098627225
161	0x3ded8537	0.11597674
162	0x3c3687e6	0.011140799
163	0x3e86db4a	0.2633918
164	0x3e4fb739	0.20284738
165	0xbee27847	-0.4423239
166	0xbe306133	-0.17224579
167	0xbef9f8a1	-0.488225
168	0x3e9c6aed	0.30550328
169	0x3d225dd9	0.03964028
170	0x3da5194b	0.08061465
171	0xba12ea30	-0.00056043547
172	0xbf5d3305	-0.86405975
173	0xbee12349	-0.43972233
174	0x3dc01023	0.09378078
175	0xbd6f0840	-0.058357477
176	0x3e3af717	0.1825832
177	0x3d5abae3	0.053400885
178	0xbe2acfbf	-0.16680811
179	0x3d269e6d	0.04067843
180	0x3e39864b	0.18117635
181	0x3dca867e	0.098889336
182	0xbe67f355	-0.22651418
183	0xbb8838c9	-0.00415716
184	0xbe957756	-0.2919261
185	0x3f1635ce	0.5867585
186	0x3e1e91c7	0.15485297
187	0xbdb9094e	-0.09034978
188	0xbd5433b5	-0.051807124
189	0xbefd9bde	-0.4953298
190	0xbc4cf328	-0.012509145
191	0xbdd867fb	-0.10566708
192	0x3dba6958	0.09102124
193	0x3d63294d	0.05545931
194	0x3df5a1e6	0.1199377
195	0x3d2e438c	0.042544886
196	0xbf1b1780	-0.60582733
197	0xbf139850	-0.57654285
198	0x3e824c97	0.25449058
199	0xbe895df2	-0.26829487
200	0x3e1f56b5	0.1556042
201	0x3edb7d01	0.42868808
202	0xbe3c8bae	-0.18412659
203	0x3df57c90	0.11986649
204	0x3d6e4cf5	0.05817886
205	0x3cd90501	0.026491644
206	0xbdca49a6	-0.098773286
207	0xbe696cc0	-0.22795391
208	0xbea99f34	-0.33129275
209	0x3f00d50f	0.503251
210	0xbd89c0d0	-0.06726229
211	0x3cd1872f	0.025577156
212	0xbd866c23	-0.06563594
213	0x3e515c90	0.20445466
214	0xbf1a6d9e	-0.6032351
215	0x3e5ee164	0.21765667
216	0x3e12a623	0.14321189
217	0x3e4369b2	0.19083288
218	0xbea59422	-0.3233958
219	0x3f839df3	1.0282577
220	0xbe320fd8	-0.17388856
221	0xbec37811	-0.3817754
222	0x3d083d2d	0.033261467
223	0x3ccf70f2	0.025322411
224	0x3cdb9c58	0.026807949
225	0x3e390f19	0.18072166
226	0xbe995762	-0.2994948
227	0xbf2b2f8d	-0.6686943
228	0x3da56515	0.080759205
229	0xbc45cace	-0.012072278
230	0x3ec16975	0.3777577
231	0x3ea44082	0.32080466
232	0xbc528f45	-0.012851541
233	0x3e6508ec	0.22366685
234	0x3da76ede	0.08175443
235	0x3deb1e83	0.11480429
236	0x3d2aea1e	0.041727178
237	0x3ee95cc6	0.45578593
238	0xbe9336b6	-0.2875268
239	0xbe2ddc6d	-0.16978617
240	0x3bafce56	0.0053651733
241	0x3ea6dd0b	0.32590517
242	0xbd9b9d1e	-0.07598327
243	0x3f3ea1c1	0.74465567
244	0x3ef80079	0.4843786
245	0x3e550e2c	0.20806187
246	0x3e6b6fa7	0.2299181
247	0x3dd57878	0.10423368
248	0xbd7c44f4	-0.061589196
249	0x3e013df8	0.12621295
250	0xbf12838a	-0.5723196
251	0x3ef93726	0.48674887
252	0x3e60d5ec	0.21956605
253	0xbc04b799	-0.008100414
254	0x3e571996	0.21005854
255	0x3eed3ffd	0.46337882

lstm.weight_hh_l0 f4 [128, 32]
0	0x3f4dcafb	0.8038785
1	0xbf24311b	-0.6413743
2	0x3ccf6518	0.02531676
3	0xbd4ec3a2	-0.05047954
4	0xbae98b01	-0.0017817916
5	0xbee374e8	-0.4442513
6	0x3d88254e	0.0664774
7	0xbe40d594	-0.18831474
8	0xbe761afe	-0.24033734
9	0x3e85c5e0	0.2612753
10	0xbd466849	-0.048439298
11	0xbc9681c9	-0.018372433
12	0xbda27b61	-0.07933689
13	0xbd387cde	-0.045040958
14	0x3ec1c108	0.37842584
15	0xbde27e67	-0.110592656
16	0xbe509023	-0.20367484
17	0xbd144ea6	-0.036207817
18	0xbe42ddb6	-0.19029889
19	0xbd913f95	-0.070922054
20	0x3e0ab82a	0.13546816
21	0x3f0998db	0.53748864
22	0x3c1d6b71	0.009608136
23	0x3f187de8	0.5956712
24	0x3f033d4f	0.51265424
25	0x3e41db89	0.18931402
26	0xbce096bb	-0.027415624
27	0xbe3fa469	-0.18715061
28	0xbcd8165c	-0.02637785
29	0xbe144914	-0.14481002
30	0xbd58ce12	-0.0529309
31	0xbe8b79c0	-0.27241325
32	0x3f5ed59f	0.8704471
33	0x3eaf44a6	0.34232062
34	0xbe298865	-0.16555937
35	0xbdf96160	-0.12176776
36	0x3f64cebc	0.8937795
37	0xbe46ea23	-0.19425254
38	0xbf157088	-0.58374834
39	0xbe1bb2b6	-0.15204892
40	0xbed62524	-0.4182521
41	0x3f81fca0	1.015522
42	0x3e7370eb	0.23773544
43	0xbda188a1	-0.07887388
44	0x3f407e21	0.7519246
45	0xbeeedb94	-0.466519
46	0x3f08e6de	0.53477275
47	0x3df47503	0.11936381
48	0xbf1aaf14	-0.604234
49	0x3f508c23	0.8146383
50	0xbea03db3	-0.31297073
51	0x3ec3a2b9	0.38210085
52	0x3e0c030b	0.13673036
53	0x3ea90879	0.33014277
54	0xbd855536	-0.06510393
55	0x3e87e008	0.2653811
56	0x3e0773fb	0.13227837
57	0xbe863453	-0.26211795
58	0xbe8d280c	-0.27569616
59	0xbd7fb546	-0.062428735
60	0x3eb3c249	0.35109165
61	0xbe857bb8	-0.26070952
62	0x3dcd6942	0.10029842
63	0xbe4f461a	-0.20241585
64	0x3f0030d1	0.5007449
65	0xbe269ff3	-0.16271953
66	0xbe2ec43f	-0.1706705
67	0xbeaa3e05	-0.33250442
68	0x3ce4d429	0.027933197
69	0x3e62baa0	0.22141504
70	0xbe38d9d0	-0.18051839
71	0xbdee7cd7	-0.11644905
72	0xbe8ae020	-0.2712412
73	0x3ed9983a	0.42498952
74	0x3e00de34	0.12584764
75	0xbed50eb9	-0.41612795
76	0x3e8405d9	0.2578571
77	0xbe03051f	-0.12794922
78	0x3f19302e	0.5983914
79	0xbea81795	-0.32830492
80	0xbf0e3040	-0.55542374
81	0x3e989f40	0.29808998
82	0x3e542924	0.20718819
83	0x3e6ae57c	0.22939104
84	0x3d6cdf26	0.05783
85	0x3f6192d2	0.88114655
86	0x3c791552	0.015202837
87	0x3e636a41	0.22208501
88	0x3db17634	0.086651236
89	0xbe9c9564	-0.30582726
90	0xbdfbe1eb	-0.1229895
91	0x3dd48c18	0.10378283
92	0xbe188df8	-0.14897907
93	0xbc174dfa	-0.0092349
94	0x3c955c25	0.018232414
95	0x3e090cf7	0.13383852
96	0x3f3dfda9	0.7421518
97	0xbeab7c6a	-0.33493358
98	0xbe0b285b	-0.13589613
99	0xbecf50d8	-0.40491366
100	0x3e25974b	0.16170995
101	0x3df6d09d	0.120515086
102	0xbdbe6a42	-0.09297611
103	0x3e2fedfb	0.17180626
104	0xbe5d85ff	-0.21633147
105	0x3e167f8f	0.14697097
106	0xbe3a3ea7	-0.18187962
107	0xbe86cd6d	-0.26328602
108	0x3ed60a3e	0.4180469
109	0xbe8925ac	-0.26786554
110	0x3f3824dc	0.7193124
111	0xbb2ad6de	-0.0026068012
112	0xbe9677bf	-0.29388234
113	0x3ea28f09	0.31749752
114	0x3da3757e	0.07981394
115	0x3ec6a691	0.38798955
116	0xbdef5803	-0.11686709
117	0x3f10d2f3	0.5657188
118	0x3ef937f1	0.48675492
119	0x3eb1c0de	0.34717458
120	0x3e49a5ac	0.19692105
121	0xbd69f964	-0.057122603
122	0xbe710448	-0.2353679
123	0x3ce6040b	0.0280781
124	0xbdf47081	-0.11935521
125	0x3e83684c	0.2566551
126	0xbf3edc31	-0.74554735
127	0xbeda1683	-0.425953
128	0x3f015228	0.50515985
129	0xbeca5db0	-0.39524603
130	0xbc855505	-0.016275892
131	0xbf4e0386	-0.80474126
132	0x3ec98e4e	0.39366382
133	0x3c8d07f8	0.017215714
134	0xbe489b79	-0.19590558
135	0xbe32fb13	-0.1747859
136	0xbf374297	-0.71585983
137	0x3cc3dc77	0.023908837
138	0x3d97fa04	0.074207336
139	0xbeeac81d	-0.458558
140	0x3eac88b5	0.3369805
141	0xbf36e345	-0.71440536
142	0x3f369cff	0.7133331
143	0xbd95dc42	-0.073174015
144	0xbf10f109	-0.5661779
145	0x3edb4d49	0.428324
146	0x3e4b9344	0.19880396
147	0x3e655c9a	0.22398606
148	0x3dfcab2f	0.12337338
149	0x3f3931b3	0.7234146
150	0x3ebd63db	0.36990246
151	0x3e615aef	0.22007345
152	0x3e8ed126	0.27893943
153	0xbc7b1377	-0.015324465
154	0xbeb03f59	-0.3442333
155	0xbe7deb80	-0.24796867
156	0xbd8074f8	-0.0627231
157	0xbe114f4d	-0.14190407
158	0xbe32e943	-0.17471795
159	0x3f0da38b	0.5532767
160	0x3f09cb6a	0.5382601
161	0xbd7f3863	-0.062309634
162	0x3d491c8d	0.049099494
163	0xbe02df02	-0.12780383
164	0x3e9b170b	0.30291018
165	0x3e34e2e5	0.17664678
166	0xbe14f6f9	-0.14547338
167	0xbe2dbdc8	-0.16966927
168	0xbe8a80c6	-0.2705137
169	0x3f1a0415	0.6016248
170	0xbe747e0c	-0.23876208
171	0xbef0a2a4	-0.46999085
172	0x3eeb3ceb	0.45944914
173	0xbebec8fb	-0.3726271
174	0x3f08f84c	0.5350387
175	0xbd838894	-0.064225346
176	0xbf0fd99f	-0.5619144
177	0x3e1f5aa9	0.15561928
178	0xbd11c57d	-0.03558873
179	0x3ded93ac	0.11600432
180	0x3e328b28	0.17435896
181	0x3ee7db3d	0.45284453
182	0x3eb020d8	0.34400058
183	0x3ec5b4ee	0.386146
184	0x3eae1ac7	0.34004804
185	0xbe7b75e2	-0.24556687
186	0xbd968152	-0.07348885
187	0xbea35daa	-0.31907398
188	0xbdc2d305	-0.09512905
189	0x3e240937	0.1601914
190	0x3d51b062	0.051193602
191	0x3e0eba77	0.13938318
192	0x3f2110c5	0.62916213
193	0xbe0bb4bb	-0.13643162
194	0xbe86aa36	-0.26301736
195	0xbee8c175	-0.45460096
196	0xbe577465	-0.21040495
197	0xbd8f9149	-0.07010133
198	0x3e80b201	0.25135806
199	0xbeb319cf	-0.34980628
200	0xbf5232fe	-0.8210906
201	0xbe890acb	-0.26766047
202	0xbed34db7	-0.4127023
203	0xbda802ef	-0.082036845
204	0xbe140404	-0.14454657
205	0xbe4bc161	-0.19897987
206	0x3e90444c	0.28177106
207	0xbe856162	-0.2605086
208	0xbec7ded8	-0.39037204
209	0x3dbc9934	0.09208909
210	0x3c815b81	0.015790703
211	0x3efb29e3	0.49055395
212	0x3f1f5e22	0.6225301
213	0x3f2c63fa	0.6734005
214	0x3dca4096	0.098756
215	0x3e9fd298	0.31215358
216	0x3f0e635f	0.5562038
217	0x3f9216b0	1.1413174
218	0x3ea5e686	0.32402438
219	0xbedba963	-0.4290267
220	0xbe47a88c	-0.1949789
221	0xbe7d4b61	-0.24735786
222	0xbd7545f3	-0.059881162
223	0x3e9cd245	0.30629173
224	0x3f1f3918	0.62196493
225	0xbebbeabb	-0.36702523
226	0xbe8dec80	-0.27719498
227	0xbef80c5f	-0.48446938
228	0x3e88eb99	0.26742247
229	0x3ec0ad68	0.37632298
230	0xbf178cc1	-0.5919915
231	0xbec697de	-0.3878774
232	0xbe8f29d2	-0.27961594
233	0x3f1a9a8c	0.6039207
234	0xbdf54114	-0.11975303
235	0xbed05ffc	-0.4069823
236	0x3f22f21e	0.6365069
237	0xbebbb6e0	-0.3666296
238	0x3f11fe54	0.570287
239	0x3db87b95	0.090079464
240	0xbf16bd6a	-0.5888277
241	0x3e3510d9	0.17682208
242	0x3ea9c362	0.33156878
243	0x3eb68cf4	0.35654414
244	0x3e1f1ed7	0.15539108
245	0x3f252e61	0.64523894
246	0x3e4bdc04	0.19908148
247	0x3e63ef18	0.22259176
248	0x3eedca46	0.46443385
249	0xbe90cca0	-0.28281116
250	0xbef82e3c	-0.48472774
251	0xbb53bf18	-0.0032309946
252	0xbe85f67d	-0.26164618
253	0x3ed7d5d7	0.42155334
254	0xbef7a1f5	-0.4836575
255	0xbf2cea51	-0.6754504

lstm.bias_ih_l0 f4 [128]
0	0x3ea693c8	0.32534623
1	0x3eb0f894	0.3456465
2	0x3e95d1fd	0.2926177
3	0x3e901393	0.28139934
4	0x3f25215f	0.64504045
5	0x3ea000b4	0.31250536
6	0x3ec07a8a	0.3759349
7	0x3f2e0b13	0.6798565
8	0x3f07a582	0.5298692
9	0x3ecc9690	0.3995862
10	0x3f21cb68	0.63201
11	0x3ef5b004	0.47985852
12	0x3e653f0c	0.22387332
13	0x3f12f70c	0.57408214
14	0x3eedf2ce	0.46474308
15	0x3f0e2493	0.5552456
16	0x3edcf3cf	0.4315476
17	0x3d9d50f3	0.076814555
18	0x3e2b8f1a	0.16753808
19	0x3e059ea2	0.13048795
20	0x3ec4b140	0.3841648
21	0x3e1169ea	0.1420056
22	0x3e6b13b5	0.22956736
23	0x3e14d352	0.14533737
24	0x3ed8dc67	0.42355654
25	0x3eda6ae3	0.42659673
26	0x3e8ee07d	0.27905646
27	0x3f1e5ee4	0.6186354
28	0x3e826d2a	0.2547391
29	0x3eb4699a	0.35236818
30	0x3dbc3139	0.09189076
31	0x3f0134e0	0.50471306
32	0x3eb0ebd1	0.34554914
33	0x3e167f2c	0.1469695
34	0x3c46ce6c	0.012134176
35	0x3e978649	0.2959464
36	0x3eaa8425	0.33303943
37	0x3e905452	0.2818933
38	0x3ea1c94c	0.3159889
39	0x3ed1a822	0.40948588
40	0x3e7e3b42	0.24827293
41	0x3c228cb6	0.009921243
42	0x3e1f1d97	0.15538631
43	0x3ee21795	0.44158617
44	0xbde8f58f	-0.113749616
45	0x3ddcbc89	0.10778148
46	0x3e57ee21	0.21086933
47	0x3eab16bc	0.33415782
48	0x3e69ec48	0.2284404
49	0x3ec224f2	0.37918812
50	0x3e8a4829	0.2700818
51	0x3ec8d5bb	0.39225563
52	0x3ef74b1e	0.48299497
53	0x3ee7cd39	0.4527376
54	0x3e761720	0.24032259
55	0x3ea9c5fd	0.33158866
56	0x3e4a0e85	0.19732101
57	0x3e75de2f	0.24010538
58	0x3f06edc4	0.5270655
59	0x3e59db47	0.21275054
60	0xbdc0d664	-0.09415892
61	0x3ee7c14f	0.4526467
62	0x3eb107c6	0.34576243
63	0x3ecc3de3	0.39890966
64	0x3e89a753	0.2688547
65	0xbc161e16	-0.0091624465
66	0xbe32a586	-0.17445955
67	0xbe784eec	-0.24248856
68	0x3de5ba40	0.11217165
69	0xbe1de6ad	-0.15420027
70	0xbdb9d543	-0.090738796
71	0xbdf941c5	-0.12170748
72	0xbe5c267c	-0.21499056
73	0x3e8b5c3b	0.27218804
74	0xbd302820	-0.043007016
75	0xbe6e719e	-0.23285529
76	0x3e281760	0.16415167
77	0xbeef807e	-0.4677772
78	0x3f000056	0.5000051
79	0x3d79f84d	0.061027814
80	0xbf1630b3	-0.5866806
81	0xbe503a3e	-0.20334718
82	0x3d46f8f2	0.048577257
83	0x3e758318	0.2397579
84	0x3e8a23e5	0.2698051
85	0x3eb7a32a	0.35866672
86	0x3eafa466	0.34305114
87	0x3e8d320d	0.27577248
88	0x3d9886c8	0.074475825
89	0xbe331c55	-0.17491277
90	0xbe43d079	-0.19122495
91	0xbe3cdfc7	-0.1844474
92	0xbe07b528	-0.132527
93	0x3a62aece	0.0008647264
94	0xbdb51014	-0.08840957
95	0xbd2a3b74	-0.041560605
96	0x3f172b74	0.5905068
97	0x3f5949c0	0.8487816
98	0x3f2f0b48	0.6837659
99	0x3f4892f1	0.78349215
100	0x3f55c381	0.8350144
101	0x3edd5212	0.43226677
102	0x3f39fce2	0.72651494
103	0x3f317d84	0.69332147
104	0x3f57ae55	0.84250385
105	0x3e0a940f	0.13533042
106	0x3f4ea868	0.8072572
107	0x3f1c290b	0.61000127
108	0x3f134bb7	0.57537407
109	0x3f20bbc3	0.627865
110	0x3f26b501	0.6511994
111	0x3f140397	0.5781798
112	0x3efa7ddb	0.48924145
113	0x3f23d5f6	0.63998353
114	0x3ee85a52	0.4538141
115	0x3f3393e8	0.7014756
116	0x3efe489f	0.4966478
117	0x3eeaf323	0.45888624
118	0x3f01cf00	0.5070648
119	0x3f5b01ee	0.8554982
120	0x3f38c6d6	0.721784
121	0x3f69016b	0.9101779
122	0x3f3fb011	0.7487803
123	0x3f3efaed	0.7460163
124	0x3f36d4dc	0.7141855
125	0x3ef7a776	0.4836995
126	0x3f079a79	0.5297008
127	0x3f319c99	0.69379574

lstm.bias_hh_l0 f4 [128]
0	0x3ebf8e38	0.37413192
1	0x3f18a23c	0.5962255
2	0x3e404573	0.18776493
3	0x3e2c8d0a	0.16850677
4	0x3f118065	0.5683654
5	0x3ecd7867	0.40130922
6	0x3ea5f2d7	0.32411835
7	0x3f29835f	0.6621608
8	0x3f0e2691	0.555276
9	0x3e174d60	0.1477561
10	0x3f0c708c	0.5485923
11	0x3e8e36c6	0.27776164
12	0x3ee4ebdb	0.44711193
13	0x3f25c979	0.6476055
14	0x3ecb7414	0.39736998
15	0x3f285f07	0.6577
16	0x3e9432b7	0.28944942
17	0xbde7de2a	-0.11321671
18	0x3e8cdb94	0.27511275
19	0x3e7d9ce3	0.24766879
20	0x3f05665c	0.52109313
21	0x3ec6b4ab	0.38809714
22	0x3da073e0	0.078346014
23	0x3eb0fc39	0.3456743
24	0x3eaf815f	0.3427839
25	0x3ef6e549	0.48221806
26	0x3e985ee1	0.29759887
27	0x3edabbb4	0.4272133
28	0x3db5cd06	0.08876996
29	0x3e94013f	0.289072
30	0x3e3cc953	0.18436174
31	0x3ee9b344	0.4564458
32	0x3edda73f	0.4329166
33	0x3dc98f6f	0.09841811
34	0x3e536505	0.20644005
35	0x3eafcf65	0.34337917
36	0x3e56789c	0.20944446
37	0x3e89f002	0.26940924
38	0x3ebdec84	0.3709451
39	0x3ea23ff4	0.31689417
40	0x3e9b87af	0.30376956
41	0x3deeaf31	0.11654509
42	0x3da7f109	0.08200271
43	0x3e858614	0.26078856
44	0x3d8ac835	0.06776468
45	0x3e08de42	0.13366035
46	0x3e635fcf	0.22204517
47	0x3ea8dffc	0.32983387
48	0x3e85e7b7	0.26153347
49	0x3dd267f2	0.10273732
50	0x3efb85c5	0.49125496
51	0x3f2c60b1	0.6733504
52	0x3e852d9e	0.26011366
53	0x3dfc436a	0.12317546
54	0x3e9952dc	0.2994603
55	0x3ed2866d	0.41118184
56	0x3e907bbd	0.28219405
57	0x3e59f1ac	0.21283597
58	0x3ea6f234	0.3260666
59	0x3eedc0cf	0.46436164
60	0xbdc1a21c	-0.09454748
61	0x3f0835f0	0.532073
62	0x3e3211c1	0.17389585
63	0x3e9115a4	0.28336823
64	0x3e88c8cd	0.267157
65	0xbdac6e06	-0.08419423
66	0x3de302b9	0.11084504
67	0xbe93a598	-0.28837276
68	0x3df66fbd	0.12033031
69	0xbeb5cf27	-0.35509607
70	0xbd5a1990	-0.053247035
71	0xbe519241	-0.20465948
72	0xbdb56b51	-0.088583596
73	0x3c7fc8c6	0.015611833
74	0x3cd6de0c	0.026228927
75	0xbdd2535e	-0.10269807
76	0x3d13dd50	0.036099732
77	0xbf14d805	-0.5814212
78	0x3eede21e	0.46461576
79	0xbdc050c4	-0.09390405
80	0xbf14c9d3	-0.5812046
81	0x3d9eda3a	0.07756467
82	0xbb8cb4f2	-0.0042940313
83	0x3eafdaf2	0.3434673
84	0x3e4a7e0d	0.19774647
85	0x3dec57f0	0.1154021
86	0x3e94bf4d	0.290522
87	0xbc601903	-0.013677838
88	0xbd27ffad	-0.041015316
89	0xbe4d333c	-0.20039076
90	0xbe905fd1	-0.28198102
91	0xbeb61eb2	-0.35570294
92	0x3ba7c7d7	0.0051202583
93	0xbd9e9844	-0.07743886
94	0xbe9bccf0	-0.30429792
95	0xbe8d81d5	-0.27638116
96	0x3ec0daa3	0.37666807
97	0x3f111fb3	0.56688994
98	0x3f0cc7ab	0.5499217
99	0x3f107948	0.5643506
100	0x3f36f3ec	0.71465945
101	0x3f356370	0.70854855
102	0x3f43d232	0.7649261
103	0x3f1aec02	0.6051637
104	0x3f66aef0	0.90110683
105	0x3e2e6b63	0.17033152
106	0x3f14b786	0.58092535
107	0x3f23408d	0.6377037
108	0x3efd77e4	0.49505532
109	0x3f387af4	0.7206261
110	0x3f17bac4	0.59269357
111	0x3f3f660a	0.74765074
112	0x3f0d19aa	0.55117285
113	0x3efdd77c	0.49578464
114	0x3f0101f8	0.5039363
115	0x3f6451db	0.891874
116	0x3f22831e	0.6348132
117	0x3e814ba3	0.2525302
118	0x3f04470b	0.516709
119	0x3f3d9d51	0.7406817
120	0x3f1f5abb	0.6224782
121	0x3f49e7f7	0.78869575
122	0x3f45c51f	0.7725391
123	0x3f0e473c	0.55577445
124	0x3f1710aa	0.590098
125	0x3f27ef54	0.6559956
126	0x3f46cdea	0.7765795
127	0x3f2ea072	0.6821357

fc.weight f4 [6, 32]
0	0x3d3e8385	0.046512146
1	0xbf744a0c	-0.95425487
2	0xbf890af3	-1.0706466
3	0xbf860ba4	-1.0472302
4	0xbf6a06de	-0.9141673
5	0x3f83f024	1.030766
6	0x3ea4d68c	0.32194936
7	0x3f85c19e	1.0449712
8	0x3f8f7f2b	1.1210684
9	0x3f6ecadb	0.9327828
10	0x3f9c5398	1.2213011
11	0x3f9521d8	1.1650953
12	0x3f8f542d	1.1197563
13	0x3f5bd08e	0.85865104
14	0x3f92daf2	1.1473067
15	0x3f73a51a	0.951738
16	0x3f17730a	0.5915991
17	0x3f7aefa0	0.9802189
18	0x3f80b6ee	1.0055826
19	0xbf8bd59a	-1.0924561
20	0xbf8de5df	-1.1085776
21	0xbf2dbfdc	-0.6787088
22	0x3f8d8976	1.1057575
23	0x3f87fde6	1.0624359
24	0x3f5576df	0.8338451
25	0x3f92186b	1.1413702
26	0xbf766fcc	-0.9626434
27	0x3f859112	1.0434897
28	0xbf83e30f	-1.0303668
29	0x3f6ed0e1	0.93287474
30	0xbf899aef	-1.0750407
31	0xbf681f25	-0.9067252
32	0x3fa9acdf	1.3255881
33	0xbeb81223	-0.35951337
34	0x3f4d5c6a	0.8021914
35	0x3f4c8a87	0.79898876
36	0xbd9e810e	-0.07739459
37	0xbeb30855	-0.34967294
38	0xbfa3f39c	-1.2808719
39	0x3edfb194	0.4369017
40	0x3f804387	1.0020608
41	0x3f8690c3	1.0512928
42	0x3f3883b2	0.7207595
43	0x3f0b6bc6	0.54461324
44	0xbf0a3bd3	-0.53997535
45	0x3c9dd0f7	0.019264681
46	0xbf38cf62	-0.7219144
47	0x3f611697	0.87925094
48	0x3e2eafe2	0.17059281
49	0xbf496861	-0.78674895
50	0x3cd87747	0.026424063
51	0x3f3fe9d6	0.7496618
52	0xbe78d19a	-0.24298707
53	0xbe4c3b9b	-0.19944613
54	0x3e3f758e	0.18697187
55	0xbf011eb0	-0.5043745
56	0xbf0de420	-0.55426216
57	0xbf71302a	-0.9421412
58	0xbf63b503	-0.88948077
59	0x3d4eb4c2	0.050465353
60	0x3e7b4d03	0.24541096
61	0xbd1d81f0	-0.038453996
62	0xbeed374a	-0.46331245
63	0xbfaa01b0	-1.3281765
64	0x3fddd1ae	1.7329614
65	0x3ddf4deb	0.109035335
66	0xbf177344	-0.59160256
67	0xbea866e9	-0.32891014
68	0xbf125e85	-0.57175475
69	0x3eb6209e	0.3557176
70	0xbfd4af05	-1.6615912
71	0xbf184990	-0.5948725
72	0xbea4399b	-0.320752
73	0x3f83418c	1.0254378
74	0xbf3a2cba	-0.727245
75	0xbe0f6704	-0.14004141
76	0x3cf9542c	0.030435644
77	0x3f09f71f	0.538927
78	0x3ed72920	0.42023563
79	0xbf11cf2f	-0.5695676
80	0x3e6bdded	0.23033877
81	0xbf76828d	-0.96292955
82	0xbdcc7086	-0.099824
83	0xbe12dcf6	-0.14342102
84	0xbed8e14b	-0.42359385
85	0xbea0f8c0	-0.3143978
86	0x3e8c6c29	0.2742627
87	0xbe1ddca4	-0.15416199
88	0x3f5aef07	0.85520977
89	0x3f681ed1	0.9067202
90	0x3f310032	0.69140923
91	0xbed03251	-0.40663388
92	0xbdde524b	-0.1085554
93	0x3ef4e49d	0.47830668
94	0x3f12835b	0.5723168
95	0xbf3279fc	-0.69717383
96	0x3e12be20	0.1433034
97	0xbd67c8f2	-0.05658812
98	0xbca9355b	-0.020655325
99	0xbd67ddf4	-0.056608155
100	0xb9c403d4	-0.00037386885
101	0xbd673ee4	-0.05645646
102	0xbe450028	-0.19238341
103	0xbca51b37	-0.020154579
104	0x3dd993d5	0.106239
105	0xbc80f2a1	-0.015740694
106	0x3ddde998	0.1083557
107	0xbcbc8106	-0.023010742
108	0xbdfa2b39	-0.12215275
109	0x3d59726a	0.05308763
110	0x3dc31e5b	0.09527274
111	0xbc7320b9	-0.014839345
112	0xbde9bad6	-0.11412589
113	0xbe03e9a0	-0.1288209
114	0xbe0a29de	-0.13492534
115	0xbe0a27c2	-0.13491729
116	0xbdbc4399	-0.09192581
117	0xbda6edc6	-0.081508204
118	0x3da1a521	0.07892824
119	0xbda096aa	-0.07841237
120	0x3e0e12b2	0.13874319
121	0x3e3b21e6	0.1827465
122	0xbc969442	-0.018381242
123	0xbdcad93a	-0.09904714
124	0xbdbfc6e3	-0.093641065
125	0xbd0f56bb	-0.034994822
126	0xbd05aa98	-0.032633394
127	0x3ddf9d31	0.10918654
128	0x3cb872aa	0.022515614
129	0x3c994935	0.018711666
130	0x3c070661	0.008241267
131	0xbd731211	-0.0593434
132	0xbac1c284	-0.0014782702
133	0xbd964c77	-0.07338803
134	0x3c84a0b2	0.016189907
135	0xbc5a4461	-0.013321967
136	0x3cd8cf42	0.026466016
137	0xbaa02c3c	-0.0012220214
138	0x3d0f99f9	0.03505895
139	0xbc9e8d67	-0.019354535
140	0x3b9333fc	0.004492281
141	0xbd1c5395	-0.038165648
142	0x3d016ac1	0.03159595
143	0x3c885783	0.016643291
144	0x3d90c736	0.070692465
145	0x3cafe86e	0.021473136
146	0x3c903c3f	0.017606853
147	0x3db2c93c	0.08729789
148	0xbccfffc3	-0.025390511
149	0xbcce63aa	-0.025194008
150	0x3d8e14b9	0.06937546
151	0xbcad390c	-0.021145366
152	0x3db7b156	0.08969371
153	0xbc8e3f90	-0.017364293
154	0x3d21600b	0.039398234
155	0xbc9afadc	-0.018918447
156	0x3da15310	0.07877171
157	0xbc5b0aeb	-0.013369302
158	0x3d588779	0.05286357
159	0xbd4780d5	-0.04870685
160	0x3dfdd678	0.12394422
161	0xba3f1a70	-0.0007290011
162	0x3cad08a2	0.02112228
163	0xbd970630	-0.07374227
164	0x3ccc5923	0.024944847
165	0x3ce7f862	0.02831668
166	0x3c6cf844	0.014463488
167	0x3d8fbbb5	0.07018224
168	0x3bcea8c0	0.0063067377
169	0x3e647ba1	0.22312786
170	0x3b82aa98	0.0039876215
171	0xbd847f34	-0.064695746
172	0xbc79df22	-0.015250953
173	0x3d0870ca	0.03331069
174	0x3d56d6f4	0.05245109
175	0xbc1e9826	-0.00967983
176	0x3b9be46f	0.004757456
177	0x3d76506e	0.060135297
178	0xbcdd1056	-0.026985329
179	0x3df05acb	0.117360674
180	0xbc8aeda7	-0.016959025
181	0x3b92e007	0.0044822725
182	0x3d58b914	0.05291088
183	0xbcc9c914	-0.024632014
184	0x3b0871f1	0.0020819867
185	0x3c53b3dd	0.012921301
186	0x3db00608	0.085949
187	0x3d181f4a	0.037139215
188	0xbd50a865	-0.050941844
189	0xbd099916	-0.03359326
190	0xbcb5df7c	-0.022201292
191	0xbc307149	-0.010769197

fc.bias f4 [6]
0	0x3f419e5b	0.75632256
1	0x3d2c46a9	0.042059574
2	0xbe7489c5	-0.2388068
3	0xbd6eb488	-0.058277637
4	0xbdf14f1a	-0.117826656
5	0xbe14480b	-0.14480607
